data.pth (torch, 6039 bytes, 6 tensors)

l1.weight f4 [8, 76]
000000 6d 11 63 be 43 2f 2a 3d 3d 91 b0 bc ea ee d5 3e
       -0.22174616 0.04154898 -0.02155363 0.4178384
000010 20 f7 dc be 7a d2 c0 be d0 34 24 3e 3b ee ff 3e
       -0.4315729 -0.3766058 0.16035771 0.49986443
000020 ca 7e dd 3d a0 48 a4 be a6 b1 4a 3e 4c ed 5f 3f
       0.10815199 -0.32086658 0.1979433 0.8747146
000030 80 53 cd be 60 43 84 be 91 ce cd be 76 4a f3 3e
       -0.40102768 -0.25832653 -0.4019666 0.47517747
000040 fb 1c 43 bf d9 d0 c3 3e eb 29 15 3e 9f f5 87 be
       -0.76216096 0.38245276 0.14566772 -0.26554582
000050 26 e8 ef 3e 6b 97 2c 3f 9b b9 87 bd f6 9e 16 be
       0.46856803 0.67418545 -0.06627198 -0.14709076
000060 80 aa 11 be ab d3 93 be 8a ad cf 3e 5f 9e 1e 3f
       -0.14225197 -0.28872427 0.40562087 0.61960405
000070 27 92 72 3f 0f b6 1d 3f 2f 22 21 3f 7a 19 43 bf
       0.9475426 0.61605924 0.62942785 -0.7621075
000080 61 4a 2e 3f e0 4f 3a 3f bc 87 1c 3f 62 5b f5 bd
       0.68082243 0.7277813 0.61144614 -0.119803205
000090 10 30 e5 bb e3 86 3b 3e 98 85 88 bd b6 02 63 bd
       -0.006994255 0.18313174 -0.06666106 -0.055422507
0000a0 0b 13 ef 3e c8 10 73 be eb 7f 4a 3f b5 df 37 3f
       0.46694216 -0.2373687 0.7910144 0.71825725
0000b0 f0 6e d6 3e 8e ae 4d be 9b 65 13 be 99 3f a7 bc
       0.41881514 -0.20086119 -0.14394228 -0.020416068
0000c0 a1 22 ad be 2c 5e d2 3e f2 b5 00 3e 15 5d bd bb
       -0.33815482 0.41087472 0.12569407 -0.0057789185
0000d0 1a 38 87 3d 4c 5e f9 be 13 5f 8e bd 8e 3f cd bc
       0.066024974 -0.48704755 -0.06951728 -0.02505472
0000e0 78 f8 89 bd fb 4b 83 3d f1 a7 99 bd 6e 6c 77 3d
       -0.06736845 0.064109765 -0.075027354 0.06040614
0000f0 e3 ec 07 3e d8 42 0e 3f e8 14 b3 be de 53 b5 3e
       0.13273959 0.55570745 -0.34976888 0.35415548
000100 1a 86 9a 3d 08 90 43 be 17 06 d8 3e 16 88 41 bf
       0.07545109 -0.19097912 0.42192146 -0.75598276
000110 d2 aa d6 bd ea 76 08 3f 2b 7b 18 bb 4c eb 85 be
       -0.104818 0.5330645 -0.0023266773 -0.2615608
000120 bf 6c bd 3e c4 76 16 be bf 44 9a 3c 4a 11 da bd
       0.3699703 -0.14693743 0.018831609 -0.10647829
000130 38 16 37 3f 67 e9 c6 bd 5c 83 f6 3c 4e aa 34 3f
       0.7151828 -0.09712487 0.030091934 0.70572364
000140 79 73 46 be cc 69 17 bf 58 5b 49 be e5 78 79 be
       -0.19379987 -0.5914581 -0.19663751 -0.24362524
000150 06 b2 58 be 02 56 16 3e 36 a9 1d 3d 27 5f 2e 3f
       -0.2116166 0.14681247 0.03849145 0.6811394
000160 5a 7a 5a 3d ba 91 9b be 4f 20 b2 be 4a 58 17 bf
       0.05333934 -0.30384618 -0.34790275 -0.59119093
000170 a3 52 a8 be a7 d0 fc bd c1 6b a5 3d 66 8e bb be
       -0.32875547 -0.12344485 0.08077193 -0.3663208
000180 68 48 8c be 73 ee 08 3f 69 b8 00 3e 84 cd 3c 3e
       -0.27398992 0.53488845 0.12570347 0.18437773
000190 c6 74 8b be c2 02 23 bd b0 09 f5 3e 4f 6c a2 be
       -0.2723753 -0.039797552 0.47858953 -0.31723258
0001a0 98 e1 1b 3f 84 be 2c bf d3 1c d9 be de ee eb 3e
       0.60891104 -0.67478204 -0.42404804 0.4608068
0001b0 05 ba cd be 08 b5 15 bf dc 53 d5 be f9 6d 07 bd
       -0.40180984 -0.58479357 -0.41665542 -0.033063862
0001c0 e4 a7 26 3d b9 76 5e bd ba 67 17 be 66 0a 00 be
       0.040687457 -0.05431244 -0.14785662 -0.12503967
0001d0 bc 66 27 be fa 8d b5 3e fe 5b 30 3f 9c 53 19 3f
       -0.16347784 0.35459882 0.6889037 0.598932
0001e0 cb 6c e8 3e 97 9f a8 3e b4 7c a6 3e dc 9d 02 3e
       0.45395502 0.32934257 0.32517016 0.12755531
0001f0 50 5a 03 bf f3 cf d8 3e 66 97 b2 3d ea 6b a1 3d
       -0.5130968 0.42346153 0.08720283 0.07881911
000200 07 49 6e 3d 64 bb d6 be 95 c7 3e be 99 cb 56 be
       0.058175113 -0.41939843 -0.18630822 -0.20976104
000210 aa 4c 1d be 1e f2 56 3e 10 fe 06 3f a5 14 ee 3c
       -0.15361276 0.20990798 0.5273142 0.029062578
000220 87 0e 3f 3e 11 26 e9 3e 14 89 9b be ff b9 15 3f
       0.18657885 0.45536855 -0.3037802 0.5848693
000230 90 f5 55 bd 08 78 de be 1e 6e 15 3f dd 15 87 3f
       -0.05223614 -0.43450952 0.5837115 1.0553547
000240 5f 60 ed 3e 2f 8b 3c be 5f 8c 0e 3e e3 b6 23 3e
       0.46362588 -0.1841247 0.13920735 0.15987734
000250 03 9a 0b be 1c 9d 5c be c4 8e c6 3e 1c 58 2b 3e
       -0.1363297 -0.21544307 0.38780797 0.1673283
000260 77 6b 04 bf 1b 36 9d 3d 55 f1 2d 3e ff 02 5c be
       -0.5172648 0.076763354 0.16986592 -0.21485518
000270 f5 5f 0e 3e 7c 43 5c bd cc 5f 8d 3e 0f d9 9a be
       0.13903792 -0.053775296 0.2761215 -0.30243728
000280 56 64 97 3d ad 5d d8 3e d5 e8 c2 3d 50 c5 3c 3f
       0.073921844 0.4225897 0.095170654 0.73738575
000290 73 e4 b3 3e 6d c8 5d 3c a2 07 82 3e 3a f3 0a 3f
       0.3513523 0.013536555 0.25396448 0.54277384
0002a0 89 d9 e6 be e7 90 67 3e 6e 68 25 3e dc 54 93 3c
       -0.4508784 0.2261387 0.16153118 0.0179848
0002b0 25 bf 20 be 18 d5 17 be 6c d7 9f 3e ce 23 88 3e
       -0.15697916 -0.14827383 0.3121904 0.26589817
0002c0 46 d0 4d 3d 46 64 12 3f a2 01 a1 bd a2 9f 89 be
       0.050247453 0.57184255 -0.078616396 -0.26879603
0002d0 e1 95 46 3f 54 2f 1e 3f 9e b2 c0 be 4c 0d fb 3e
       0.7757245 0.61790967 -0.37636274 0.49033582
0002e0 54 b3 e9 be c1 85 dc be 8c 02 a0 be 60 9c 53 be
       -0.4564463 -0.43070796 -0.31251943 -0.20665121
0002f0 21 9f 58 be f6 d2 0d 3e 53 95 b1 3d d5 ad b6 bd
       -0.21154453 0.13850006 0.086710595 -0.089198746
000300 1e 06 f4 3d 80 1b eb be 8f a2 6e be 75 b7 6f be
       0.11915229 -0.45919418 -0.23304199 -0.23409827
000310 4b 11 24 3f 38 6f a2 bd 82 d0 f7 be d4 a9 6c be
       0.64088887 -0.079313695 -0.48401266 -0.2311166
000320 91 d9 14 3c 1c 84 94 bd 48 70 27 3e 07 b4 ba 3e
       0.009085075 -0.0725176 0.16351426 0.36465475
000330 a9 57 9a be 06 01 1f 3e e1 8a e7 3d 75 8d e2 3d
       -0.30145004 0.15527734 0.11305786 0.11062137
000340 59 13 0a 3e 27 bf c9 bd 5b df 38 bf 26 38 43 3e
       0.13483943 -0.098509125 -0.72215813 0.19064388
000350 83 36 8e be 4f 72 21 3f c4 35 a6 3e 9b a5 07 3c
       -0.27775964 0.63065046 0.32462895 0.0082792295
000360 b3 8e 50 3e 79 d0 3e 3c d0 98 0d be 4a 63 11 bf
       0.20366935 0.011646383 -0.13827825 -0.5679213
000370 db 50 e0 be 56 77 2a be fd 80 77 3d 23 1b b6 3e
       -0.43811688 -0.16647086 0.060425747 0.3556758
000380 dd 97 29 3e 4e b5 83 3c 43 2d fa 3c e0 db 25 3e
       0.16561837 0.016077664 0.03053916 0.16197157
000390 a6 1c e3 3d 2c 17 01 3d 73 b2 72 3e 11 d8 02 3f
       0.11089449 0.03151624 0.23700885 0.5111094
0003a0 51 ad ae 3e 1c 9a 8e be f4 0c 08 3e 94 d4 9c 3e
       0.34116605 -0.2785195 0.13286191 0.30630934
0003b0 95 3b cd 3e 95 d3 f1 3e 8c e4 43 be bc 22 02 bf
       0.4008452 0.47231737 -0.19130152 -0.5083425
0003c0 01 62 f2 3e 33 b4 f8 bd 1d ae 28 be 42 41 27 3e
       0.47340396 -0.12143745 -0.16472669 0.16333488
0003d0 4f 15 30 3f dc da 2d 3e bf 28 55 3e e9 e1 aa bd
       0.68782514 0.1697802 0.20816325 -0.0834387
0003e0 06 62 db 3e a5 09 66 3d 1b 72 9f 3e ef e8 ba 3e
       0.42848223 0.05616154 0.31141743 0.3650584
0003f0 47 35 ae 3e 12 78 02 3f 75 eb f4 3e 5b 72 00 3f
       0.34025022 0.5096446 0.4783589 0.5017449

l1.bias f4 [8]
000000 08 1e 43 3f 2c 59 17 3f 72 5b 11 3f 51 b1 8e 3f
       0.762177 0.5912044 0.5678016 1.1147863
000010 f5 eb 1b 3f 1c fd 12 3f 46 cd 4d 3f 05 43 1d 3f
       0.60906917 0.57417464 0.8039135 0.6143039

l2.weight f4 [8, 8]
000000 e2 ad f8 3f 60 8b a6 3e 20 20 80 3f 09 82 07 3f
       1.9428065 0.3252821 1.0009804 0.5293279
000010 8b bf 91 3f 0a 0d fb be 64 ba ad be 02 1c 07 bf
       1.1386579 -0.49033386 -0.33931267 -0.5277711
000020 ec 89 89 3d b0 a5 c0 3f 9d ac 1d bf 43 d6 44 3f
       0.0671576 1.5050564 -0.6159151 0.7688944
000030 57 af 48 3e 88 df 9c 3f 25 fe 59 bf 08 fc 92 3f
       0.19598137 1.2255716 -0.8515342 1.1483164
000040 3c 87 91 bf ec 76 3d bf c0 a0 2d 3f b2 05 9e 3f
       -1.1369395 -0.74009585 0.6782341 1.2345488
000050 23 b2 ef 3e 83 82 02 bf 89 cc 97 3f a1 f4 f2 3e
       0.46815595 -0.50980395 1.1859294 0.47452262
000060 6a 56 9d bf d2 b9 fe bd 06 34 3b 3f 61 41 81 3f
       -1.2291996 -0.12437786 0.73126256 1.0098077
000070 3e aa 34 3f 1d c0 1b be 92 81 51 3f a4 c6 9a bf
       0.7057227 -0.15210004 0.81838334 -1.209187
000080 2b 5b 62 3e cc 98 25 bc 95 bc b2 3f 33 7e c4 3d
       0.2210509 -0.01010723 1.3963801 0.09594383
000090 bb d1 a3 3f de c5 06 3f e4 27 3c be f3 4a 38 bf
       1.279838 0.5264567 -0.18374592 -0.71989363
0000a0 d0 e9 64 3f f8 ca a2 bf a0 d7 07 be f3 3d 54 3f
       0.8941927 -1.2718191 -0.13265848 0.82907027
0000b0 12 1c 8c be ea 1a 89 bf f6 b4 aa 3f eb 51 59 be
       -0.27365166 -1.0711339 1.3336475 -0.21222655
0000c0 78 66 d6 3e 41 69 45 bf 68 1a b0 3d 9c 47 2f 3e
       0.41875052 -0.7711373 0.085987866 0.1711716
0000d0 8f 80 0a 3f e9 56 0f 3f 00 87 5a be ee f5 96 3f
       0.54102415 0.5599199 -0.21340561 1.1793802
0000e0 7a 0c b2 3e 44 bd 77 3f c0 34 4e bf 3c 8a 91 3f
       0.34775144 0.9677317 -0.8054924 1.1370311
0000f0 64 88 94 bf 36 ae 67 be d0 47 6c 3f b6 99 c6 be
       -1.1604123 -0.2262505 0.9229708 -0.38789147

l2.bias f4 [8]
000000 3b fd 1d 3a 0c 81 fa 3e eb d5 46 3f b2 ce b0 3e
       0.0006026809 0.4892658 0.7767016 0.34532696
000010 2e 52 4a 3e e2 fe 29 3f 7a 08 79 3e 21 1c ab 3e
       0.19757912 0.66404545 0.2431964 0.33419898

l3.weight f4 [9, 8]
000000 93 45 20 3f 1f b9 c4 bf b6 4a ed 3e 37 de d8 3e
       0.6260616 -1.5368994 0.46346062 0.42357036
000010 a1 69 0c 3f 52 33 a6 3e 60 bd 8c bf 8c e0 89 bf
       0.54848677 0.3246103 -1.0995293 -1.0771651
000020 90 07 80 bf ce 4f 59 3f b1 d7 86 bf f7 87 37 bf
       -1.0002308 0.848874 -1.0534574 -0.7169184
000030 71 92 f8 be 9d 41 c5 be 22 d7 56 3f 04 20 98 bf
       -0.48549226 -0.3852662 0.83922017 -1.188477
000040 d4 e0 90 bf 9a e9 a4 bf d5 f7 30 3f a6 50 16 3f
       -1.1318612 -1.288379 0.6912816 0.5871681
000050 73 1e 4a bf 25 c7 2b 3f cd 33 ef bf d1 d4 0e 3f
       -0.7895271 0.67100745 -1.8687683 0.5579348
000060 47 a7 2c 3f b9 55 ed 3d fd 25 54 bf 01 39 09 bf
       0.67442745 0.11588616 -0.82870466 -0.53602606
000070 22 54 5d bf f1 1c 9b be 35 81 91 bf e2 e3 bc 3e
       -0.864565 -0.30295518 -1.1367556 0.3689261
000080 40 5c 44 3f 81 04 25 3d fd 93 87 bf 04 d0 92 bf
       0.7670326 0.0402875 -1.0592037 -1.1469731
000090 07 e3 49 3f 11 d4 b7 be 91 36 90 be 0b 8c d3 bf
       0.7886204 -0.3590398 -0.2816663 -1.6527113
0000a0 f2 d6 33 3e 50 9f 1d bf f2 2e 5a 3e 29 80 8e bf
       0.17562464 -0.61571217 0.2130697 -1.1132861
0000b0 7f a4 c5 bf 22 62 3d 3f 3f c5 ae 3e b0 86 72 3e
       -1.5440825 0.73977864 0.34134862 0.23684192
0000c0 00 b4 53 be fb bd 1c bc aa 11 00 3f 41 7d 97 3e
       -0.20674133 -0.009566779 0.50026953 0.2958775
0000d0 d9 0f 96 3e 86 67 91 bf 53 a7 3d bb a8 5a 30 bf
       0.29308966 -1.1359718 -0.0028938844 -0.6888833
0000e0 98 b4 e4 bf 59 44 20 be 22 ac 7b 3f c3 eb 94 bf
       -1.7867613 -0.15651073 0.9830953 -1.1634449
0000f0 0d 07 4a bf 4e 92 43 3e 47 aa 69 3f 2c 3e e5 bf
       -0.7891701 0.1909878 0.9127545 -1.7909598
000100 e3 03 d7 bf c8 d8 36 3f 6b d3 3e 3e 95 5d 81 be
       -1.6798061 0.7142453 0.18635337 -0.2526671
000110 6e 0f 9d bf 10 07 2b bf 8c 45 96 bf 52 ed 3c 3f
       -1.2270334 -0.6680765 -1.1739974 0.7379962

l3.bias f4 [9]
000000 6d bd c2 bd 60 4f a2 3c 6c 1f 6b bd b9 d0 f6 be
       -0.09508786 0.01981324 -0.057403013 -0.48206118
000010 d0 cf 88 3e ed 44 60 3e 4d 55 30 be 6d ea 41 3d
       0.26721048 0.21901293 -0.1722004 0.047342706
000020 3e 91 51 3d
       0.051163904
